…
o 3. Each row represents a layer in the model, indicating the type of layer, its parameters, and specific arguments. The model is built using various modules such as convolutional layers ( Conv ), concatenation layers ( Concat ), and the Detect module at the end, which specifies the number of classes and their respective parameters. The following table summarizes the architecture of the YOLOv8 model, with the number of classes ( nc ) overridden from 80 to 3. The table details the layers, parameters, and modules used in the model. Layer From Num Params Module Arguments 0 -1 1 1,856 ultralytics.nn.modules.Conv [3, 64, 3, 2] 1 -1 1 73,984 ultralytics.nn.modules.Conv [64, 128, 3, 2] 2 -1 3 279,808 ultralytics.nn.modules.C2f [128, 128, 3, True] 3 -1 1 295,424 ultralytics.nn.modules.Conv [128, 256, 3, 2] 4 -1 6 2,101,248 ultralytics.nn.modules.C2f [256, 256, 6, True] 5 -1 1 1,180,672 ultralytics.nn.modules.Conv [256, 512, 3, 2] 6 -1 6 8,396,800 ultralytics.nn.modules.C2f [512, 512, 6, True] 7 -1 1 2,360,320 ultralytics.nn.modules.Conv [512, 512, 3, 2] 8 -1 3 4,461,568 ultralytics.nn.modules.C2f [512, 512, 3, True] 9 -1 1 656,896 ultralytics.nn.modules.SPPF [512, 512, 5] 10 -1 1 0 torch.nn.modules.upsampling.Upsample [None, 2, 'nearest'] 11 [-1, 6] 1 0 ultralytics.nn.modules.Concat [1] 12 -1 3 4,723,712 ultralytics.nn.modules.C2f [1024, 512, 3] 13 -1 1 0 torch.nn.modules.upsampling.Upsample [None, 2, 'nearest'] 14 [-1, 4] 1 0 ultralytics.nn.modules.Concat [1] 15 -1 3 1,247,744 ultralytics.nn.modules.C2f [768, 256, 3] 16 -1 1 590,336 ultralytics.nn.modules.Conv [256, 256, 3, 2] 17 [-1, 12] 1 0 ultralytics.nn.modules.Concat [1] 18 -1 3 4,592,640 ultralytics.nn.modules.C2f [768, 512, 3] 19 -1 1 2,360,320 ultralytics.nn.modules.Conv [512, 512, 3, 2] 20 [-1, 9] 1 0 ultralytics.nn.modules.Concat [1] 21 -1 3 4,723,712 ultralytics.nn.modules.C2f [1024, 512, 3] 22 [15, 18, 21] 1 5,585,113 ultralytics.nn.modules.Detect [3, [256, 512, 512]] Model Summary : - Total Layers : 365 - Total Parameters : 43,632,153 - Total Gradients : 43,632,137 - GFLOPs : 165.4 After Training model 50 epochs completed in 0.590 hours. Optimizer stripped from runs/detect/train/weights/last.pt, 87.6MB Optimizer stripped from runs/detect/train/weights/best.pt, 87.6MB Validating runs/detect/train/weights/best.pt... Ultralytics YOLOv8.0.81 \u
…
